data.pth (torch, 5279 bytes, 6 tensors)

l1.weight f4 [8, 54]
-0.20286144 0.84912753 -0.51279706 -0.25929064 -0.012588858 0.22247115 -0.030987693 -0.40051246
-0.36612272 -0.24294257 -0.004891099 -0.11798872 0.6042038 -0.119988754 0.57680935 -0.19584331
-0.19961436 0.08809454 0.405611 -0.18458205 -0.21317677 -0.14391486 -0.21855813 -0.3117681
-0.253628 -0.34137824 0.5916361 0.9581995 0.40839785 0.6681407 -0.09965314 -0.039420925
-0.3469927 -0.4429472 0.8925775 -0.21414497 0.3734612 -0.2354681 -0.10626191 -0.016405378
0.025563719 0.45785376 0.030357704 0.63933504 -0.34103322 0.9813833 -0.5610549 -0.0772602
0.30719125 0.70607924 -0.31620693 0.4425505 -0.086334854 0.16458276 -0.1903204 -0.11644311
-0.4165755 0.5614406 0.40613374 0.6024534 -0.16783401 -0.25831994 -0.5418101 -0.34521747
0.56642455 -0.27611932 0.08663796 -0.29988024 -0.09663574 -0.10877503 0.6891249 0.65318936
0.4066095 0.9447778 -0.30524725 0.7699049 0.80658257 0.20130646 -0.20973158 0.45233274
0.62029433 -0.20873526 0.37705204 -0.30261275 0.36299372 -0.18795402 -0.21776584 -0.2732437
0.02236542 -0.15862136 0.4037976 -0.44946855 -0.14521681 -0.24450204 0.35237363 0.43832114
-0.27641293 -0.1431198 -0.36285806 -0.19563362 -0.65717244 -0.20794949 0.491918 0.5622691
-0.14949103 0.52149206 -0.1584585 0.13623476 -0.06523711 0.25426835 -0.22980201 -0.038932033
-0.37252146 0.053569812 -0.25713307 -0.33003736 0.014118219 -0.23085488 -0.18599114 0.78644735
0.38216582 0.6200174 0.275505 0.37268484 -0.12632751 -0.075407624 -0.16749807 -0.29816633
-0.16123109 -0.3086895 -0.31251916 0.4836515 0.26827067 -0.028732413 -0.16205983 0.38762704
0.03768005 0.22076179 -0.13429205 0.6673394 -0.16331576 -0.2455586 0.15006325 0.50664544
0.033448245 -0.081518985 -0.043559067 -0.16451508 -0.062336963 -0.32518685 0.56110907 0.3232531
0.34904882 0.26495785 -0.31999707 -0.09450127 -0.16345653 -0.22920762 0.54039794 -0.23029196
-0.11427466 -0.13898845 0.5132961 -0.027926022 -0.40172493 0.5621415 0.121268176 -0.5162768
-0.24443156 -0.33657202 -0.43164444 -0.30254608 0.70969206 0.40740654 -0.07296186 0.23609766
-0.19428046 0.39003602 0.6158363 -0.60518503 0.24011502 0.66960657 0.5309753 0.91113764
0.9129256 0.6433257 0.20510921 0.49713337 0.24040934 -0.35385597 0.06874695 -0.30834028
-0.2917384 0.45251325 0.46342164 -0.36488825 -0.28641695 0.40152985 0.039866157 -0.38466102
-0.19115102 -0.17736064 -0.17208813 0.39944595 0.2124937 -0.24783628 -0.016208768 -0.1413614
0.991045 0.39597762 0.48781982 0.3128112 0.23007143 0.283616 -0.18435541 0.21653165
-0.3346683 -0.018516647 0.14727986 0.20293188 0.13164389 0.941756 0.30425924 -0.044778123
0.12461084 -0.057265364 0.28883392 -0.15169537 -0.35464805 -0.25392735 -0.10776346 -0.2490856
0.26235706 0.946944 0.077153124 0.18513913 -0.14260949 0.28350696 0.3004584 0.10411026
0.30772913 0.17331436 -0.23320004 -0.05603888 -0.18243736 -0.21528813 0.78377247 -0.10401675
-0.008712143 0.118007764 0.0906841 -0.03105295 -0.21731906 0.11521955 0.18234928 0.13560194
00000000: e9ba 4fbe 6c60 593f ab46 03bf bec1 84be
00000010: 7f41 4ebc 7acf 633e e7d9 fdbc f80f cdbe
00000020: 7074 bbbe f0c5 78be 8345 a0bb 12a4 f1bd
00000030: 1aad 1a3f aabc f5bd c7a9 133f 268b 48be
00000040: b567 4cbe e96a b43d 3fac cf3e 1403 3dbe
00000050: 034b 5abe 6b5e 13be b4cd 5fbe 12a0 9fbe
00000060: 87db 81be 21c9 aebe 7775 173f 904c 753f
00000070: 8619 d13e 450b 2b3f f216 ccbd d677 21bd
00000080: 07a9 b1be fac9 e2be f67f 643f d248 5bbe
00000090: 4e36 bf3e 8d1e 71be d89f d9bd 9264 86bc
000000a0: 016b d13c cf6b ea3e b8b0 f83c 76ab 233f
000000b0: e89b aebe f03b 7b3f 4ba1 0fbf 993a 9ebd
000000c0: 2c48 9d3e 9cc1 343f e0e5 a1be fb95 e23e
000000d0: 54d0 b0bd 6288 283e 5ae3 42be ba79 eebd
000000e0: 6249 d5be 92ba 0f3f c3f0 cf3e 633a 1a3f
000000f0: aedc 2bbe 8342 84be 11b4 0abf 58c0 b0be
00000100: 3301 113f 835f 8dbe 3e6f b13d e789 99be
00000110: f5e8 c5bd 71c5 debd 7d6a 303f 6b37 273f
00000120: 1f2f d03e f5dc 713f 5e49 9cbe 7d18 453f
00000130: 327c 4e3f 4823 4e3e e0c3 56be 2898 e73e
00000140: 9ccb 1e3f b2be 55be f70c c13e 0ff0 9abe
00000150: 50da b93e 0577 40be 02fe 5ebe 99e6 8bbe
00000160: af37 b73c a36d 22be 8fbe ce3e be20 e6be
00000170: b7b3 14be be5e 7abe 516a b43e a16b e03e
00000180: ff85 8dbe ff8d 12be 88c8 b9be 2e54 48be
00000190: 743c 28bf b6f0 54be addc fb3e def0 0f3f
000001a0: 2d14 19be 8180 053f f242 22be 2081 0b3e
000001b0: 099b 85bd 762f 823e 3851 6bbe 3277 1fbd
000001c0: 22bb bebe 056c 5b3d f2a6 83be a8fa a8be
000001d0: 1a50 673c 3965 6cbe 7674 3ebe 9d54 493f
000001e0: 3dab c33e 76b9 1e3f fe0e 8d3e 8cd0 be3e
000001f0: 005c 01be 506f 9abd 9d84 2bbe 42a9 98be
00000200: c319 25be 8d0c 9ebe 8302 a0be 2ba1 f73e
00000210: c65a 893e 3d60 ebbc 03f3 25be 0d77 c63e
00000220: 6556 1a3d 610f 623e db83 09be c1d6 2a3f
00000230: 3f3c 27be b773 7bbe 2eaa 193e 84b3 013f
00000240: 0701 093d 6df3 a6bd fe6a 32bd a476 28be
00000250: 0b55 7fbd e47e a6be d8a4 0f3f 6e81 a53e
00000260: 87b6 b23e 8ea8 873e a8d6 a3be e289 c1bd
00000270: 2661 27be 67b5 6abe 8557 0a3f a8d1 6bbe
00000280: d508 eabd fd52 0ebe 6067 033f 1dc5 e4bc
00000290: e4ae cdbe 81e8 0f3f 735b f83d b72a 04bf
000002a0: 444c 7abe 2b53 acbe 8000 ddbe 52e7 9abe
000002b0: 61ae 353f 9797 d03e 076d 95bd 96c3 713e
000002c0: 75f1 46be cdb2 c73e 73a7 1d3f 68ed 1abf
000002d0: b6e0 753e 566b 2b3f ffed 073f 5140 693f
000002e0: 7eb5 693f feb0 243f 2608 523e 4488 fe3e
000002f0: de2d 763e 9c2c b5be 33cb 8c3d c7de 9dbe
00000300: bc5e 95be d1af e73e 9a45 ed3e a2d2 babe
00000310: 3ea5 92be 5295 cd3e b24a 233d 4af2 c4be
00000320: 18bd 43be 079e 35be df37 30be 2e84 cc3e
00000330: f397 593e cbc8 7dbe 40c8 84bc 0bc1 10be
00000340: 20b5 7d3f 94bd ca3e 85c3 f93e ca28 a03e
00000350: d897 6b3e 1e36 913e aac7 3cbe 79ba 5d3e
00000360: a559 abbe 39b0 97bc 88d0 163e 60cd 4f3e
00000370: a8cd 063e ec16 713f dec7 9b3e 4469 37bd
00000380: f833 ff3d 168f 6abd 0ae2 933e 0856 1bbe
00000390: 6e94 b5be c402 82be 17b3 dcbd 4c10 7fbe
000003a0: aa53 863e ec6a 723f 7502 9e3d 1d95 3d3e
000003b0: 3908 12be d327 913e afd5 993e c337 d53d
000003c0: ac8e 9d3e 5279 313e fecb 6ebe 0689 65bd
000003d0: dcd0 3abe 7e74 5cbe 50a5 483f bc06 d5bd
000003e0: 60bd 0ebc 0eae f13d 96b8 b93d c262 febc
000003f0: e388 5ebe 3af8 eb3d c5b9 3a3e 3cdb 0a3e

l1.bias f4 [8]
0.49346867 0.9257403 0.311203 0.9152758 0.64427197 0.41146302 0.4342306 0.92728275
00000000: eda7 fc3e 51fd 6c3f 0056 9f3e 844f 6a3f
00000010: 02ef 243f 48ab d23e 7953 de3e 6762 6d3f

l2.weight f4 [8, 8]
1.6424445 0.8605813 -0.35743022 0.27034393 0.35805205 -0.18058982 -0.5382316 0.040901992
-0.16518745 1.1984365 -0.83461297 0.42177132 1.2625281 0.52700645 0.9303936 0.5575016
-1.0517696 0.24171409 0.4531126 1.1143364 -0.015286256 -0.9967533 -0.610794 1.1436418
0.19787014 -0.4816079 -0.32183376 0.0012369923 0.15441813 0.16263416 -0.3053699 0.14609256
-0.760097 0.7312656 -0.4840354 -0.13411474 1.7323486 0.9360567 -0.49240094 0.7589287
0.3574985 0.9414852 -1.1597556 1.0196741 -0.8558466 -0.9585104 0.4163421 0.51948714
-0.32275015 0.47324634 0.41350558 1.1523206 -0.47465464 -0.7582386 -0.19704454 0.59742236
-0.6998904 -0.66820824 -0.80280876 0.20844705 -0.6578935 0.84943324 1.3744147 0.74989647
00000000: 9f3b d23f 0e4f 5c3f 1801 b7be 856a 8a3e
00000010: 9952 b73e 8aec 38be 8cc9 09bf d988 273d
00000020: e626 29be 5e66 993f 32a9 55bf 69f2 d73e
00000030: 859a a13f e5e9 063f 462e 6e3f 6db8 0e3f
00000040: 63a0 86bf e683 773e 60fe e73e 93a2 8e3f
00000050: 3473 7abc 392b 7fbf ff5c 1cbf db62 923f
00000060: 789e 4a3e 5095 f6be 65c7 a4be 9322 a23a
00000070: c91f 1e3e 9289 263e 7259 9cbe 4a99 153e
00000080: b895 42bf 3934 3b3f 7dd3 f7be 6055 09be
00000090: 99bd dd3f 69a1 6f3f fa1b fcbe 2749 423f
000000a0: 0b0a b73e 2d05 713f df72 94bf ae84 823f
000000b0: c318 5bbf f060 75bf cb2a d53e 1cfd 043f
000000c0: 823f a5be 584d f23e 01b7 d33e 3e7f 933f
000000d0: ef05 f3be ed1b 42bf 0bc6 49be acf0 183f
000000e0: 042c 33bf b20f 2bbf e084 4dbf 2573 553e
000000f0: b56b 28bf 7574 593f d2ec af3f 37f9 3f3f

l2.bias f4 [8]
0.36997983 0.3659805 0.5329797 -0.29174936 0.6790536 0.19968027 0.49646392 0.49850917
00000000: ff6d bd3e cc61 bb3e 5c71 083f 2c60 95be
00000010: 75d6 2d3f fc78 4c3e 8530 fe3e 983c ff3e

l3.weight f4 [7, 8]
-1.5049802 -0.87558186 0.8748578 -0.26806214 -0.54728544 -1.1757638 1.0849015 -0.43373886
1.0827303 -0.8568772 -0.63534296 -0.034223348 -0.6415196 -0.77545524 -0.4370238 -0.45557454
-0.019929685 0.47144383 -0.3301872 0.162874 0.7084588 -1.7780873 -0.080003455 -1.1172603
-0.042336043 -0.15530035 0.6471073 0.257918 0.35011286 0.09587965 0.21115722 -1.083813
0.1752096 0.16224724 -1.3146098 0.1153915 -1.0423014 0.65531397 0.36530182 -0.487744
-1.60689 0.09251455 -1.1809298 0.30446348 0.39889717 -1.0228077 -0.67435133 0.98539203
-0.7135423 -0.14751215 0.12030144 -0.38721734 -0.63165027 0.4675149 0.194285 0.6816937
00000000: 31a3 c0bf 2226 60bf aef6 5f3f 713f 89be
00000010: e61a 0cbf 6e7f 96bf 0dde 8a3f 0513 debe
00000020: e896 8a3f 4e5c 5bbf d6a5 22bf c82d 0cbd
00000030: a13a 24bf 3c84 46bf 95c1 dfbe 1141 e9be
00000040: 9443 a3bc 1661 f13e 4c0e a9be 71c8 263e
00000050: 8e5d 353f 5d98 e3bf dad8 a3bd 6302 8fbf
00000060: 8f68 2dbd 0e07 1fbe d3a8 253f d40d 843e
00000070: fe41 b33e 8d5c c43d 9939 583e 62ba 8abf
00000080: 256a 333e 2424 263e 2245 a8bf 6152 ec3d
00000090: 226a 85bf a8c2 273f d708 bb3e 95b9 f9be
000000a0: 92ae cdbf 4578 bd3d b528 97bf a3e2 9b3e
000000b0: 403c cc3e 5deb 82bf 4aa2 2cbf a742 7c3f
000000c0: b5aa 36bf 6d0d 17be 9a60 f63d 5a41 c6be
000000d0: d5b3 21bf 1d5e ef3e a6f2 463e 7a83 2e3f

l3.bias f4 [7]
0.07666214 0.6719444 -0.16856499 -0.60917026 -0.34685507 0.2617753 -0.57404286
00000000: 0a01 9d3d 8c04 2c3f 4d9c 2cbe 95f2 1bbf
00000010: fd96 b1be 6a07 863e 79f4 12bf
